model/cam_synth_l3_f20.onnx (onnx, 3258 bytes, 4 tensors)

gcn_list.0.weight f4 [20, 10]
0	0x3ec8673e	0.39141268
1	0x3ebe2305	0.37136093
2	0xbec311b0	-0.38099432
3	0x3db90c11	0.090355046
4	0x3eb11723	0.34587964
5	0xbed04757	-0.40679428
6	0x3ecb0a10	0.39656115
7	0x3e8cc603	0.2749482
8	0x3e0b05d7	0.13576446
9	0x3d9056ff	0.07047843
10	0x3e353f00	0.17699814
11	0x3db42b98	0.08797377
12	0xbee4cb9f	-0.446866
13	0x3d229c07	0.03969958
14	0x3e3e127e	0.18561742
15	0xbe996b46	-0.29964656
16	0x3ed17abd	0.40913954
17	0x3e9d688f	0.30743834
18	0xbe09f8cf	-0.13473819
19	0x3e006914	0.12540084
20	0x3eabc7b0	0.33550787
21	0x3ee886a7	0.45415232
22	0x3dbdc1a1	0.092654474
23	0x3f0a8738	0.5411258
24	0x3c9a6827	0.018848492
25	0x3db64f41	0.08901835
26	0x3f281ace	0.656659
27	0xbf234565	-0.6377776
28	0x3c0baff7	0.00852584
29	0xbeecb811	-0.46234182
30	0x3e8a35a4	0.2699405
31	0x3ec03b22	0.37545115
32	0xbeabaac3	-0.33528718
33	0x3e74d9fa	0.23911276
34	0x3d95a11f	0.07306122
35	0xbf3ae16e	-0.7300023
36	0x3e4d93d5	0.20075925
37	0x3f0feb80	0.5621872
38	0x3e70518f	0.23468612
39	0x3ebed4e2	0.37271792
40	0x3ebbcc5e	0.36679357
41	0x3e892b59	0.26790884
42	0x3e2b63bc	0.16737264
43	0xbdae403e	-0.08508347
44	0xbe3dca43	-0.18534188
45	0xbf2b0a6e	-0.6681279
46	0x3f099133	0.5373718
47	0xbbcd342f	-0.0062623243
48	0x3da286c4	0.07935861
49	0xbf03a19b	-0.51418465
50	0x3ecbcbf3	0.39804038
51	0x3ed77575	0.420818
52	0x3eb74e6c	0.3580202
53	0x3e81fb7f	0.2538719
54	0x3eeecbb6	0.46639794
55	0xbe1ada12	-0.1512225
56	0x3e90d793	0.2828947
57	0xbf161ddb	-0.58639306
58	0x3d5551d1	0.05207998
59	0xbf126eeb	-0.572005
60	0x3ed567ed	0.41680852
61	0x3ebe423e	0.37159914
62	0xbe42e7ec	-0.19033784
63	0x3ef38934	0.47565615
64	0x3f01137c	0.50420356
65	0x3e0f9c6b	0.14024512
66	0x3eedf427	0.46475336
67	0xbe7476d8	-0.2387346
68	0x3e4d6409	0.20057692
69	0x3ee58a2a	0.44831973
70	0xbcfab70d	-0.030604864
71	0x3e776400	0.2415924
72	0x3e9d17dc	0.30682266
73	0x3ecad910	0.3961873
74	0x3ed91827	0.4240124
75	0x3f06014b	0.5234572
76	0x3e975bc4	0.295622
77	0xbf259aac	-0.64689136
78	0x3d350cc7	0.04420164
79	0xbf145a32	-0.5795013
80	0xbdb4fe2b	-0.08837541
81	0x3eccd0d0	0.4000306
82	0x3eaeac29	0.34115723
83	0xbde6b5d6	-0.11265151
84	0x3edb4534	0.42826235
85	0xbeabfdf5	-0.3359219
86	0x3e7c6d0d	0.24650975
87	0xbea689b7	-0.32526943
88	0x3e2ddc1f	0.16978501
89	0xbf077250	-0.529088
90	0x3ebb15fb	0.36540207
91	0x3ed548e9	0.4165719
92	0x3ec5c235	0.3862473
93	0x3eda396a	0.42621928
94	0xbe51eb87	-0.20500003
95	0xbed5aa71	-0.417316
96	0x3eef97d7	0.46795532
97	0xbe4f310a	-0.2023355
98	0xbdbc0cd9	-0.09182138
99	0xbf14ee82	-0.58176434
100	0x3eef0f1b	0.46691212
101	0x3e967681	0.29387286
102	0xbe68dace	-0.22739717
103	0x3e96a392	0.2942167
104	0xbf13527a	-0.57547724
105	0x3d4b8368	0.049685866
106	0x3e2fdcbf	0.17174052
107	0xbf093e7c	-0.5361097
108	0x3d9938bf	0.074815266
109	0x3eab58df	0.3346624
110	0x3eb071a2	0.34461695
111	0x3ebe57d1	0.37176374
112	0xbe369b23	-0.17832617
113	0x3f284041	0.65723044
114	0x3f50f18f	0.8161859
115	0xbf2eb007	-0.68237346
116	0x3e96ebb5	0.29476705
117	0xbdf6ec82	-0.12056829
118	0x3de0f421	0.10984064
119	0xbe57fbd8	-0.21092165
120	0x3ecdf941	0.40229228
121	0x3e481b72	0.1954172
122	0xbe45e5ed	-0.19325991
123	0x3eedba08	0.46430993
124	0xbe76d4b1	-0.24104573
125	0xbf0d5a79	-0.55216175
126	0x3e5fd2ae	0.21857712
127	0xbe29b6c0	-0.1657362
128	0x3dc4e008	0.09613043
129	0xbf2213b3	-0.6331131
130	0x3eeda1ed	0.46412602
131	0x3ea95d8a	0.33079177
132	0xbe5843ae	-0.21119568
133	0x3edc7bfe	0.4306335
134	0x3f39b056	0.7253469
135	0xbed93595	-0.42423692
136	0x3ef278e7	0.47357866
137	0xbf008dea	-0.50216544
138	0x3e4f52a8	0.20246375
139	0xbe4a7e39	-0.19774713
140	0x3f1a665b	0.6031243
141	0x3eec8609	0.4619601
142	0x3f1bb6cd	0.60825807
143	0x3ea896c0	0.32927513
144	0xbe4c0571	-0.1992395
145	0xbe5125ec	-0.20424622
146	0x3f1579b8	0.58388853
147	0xbea57ad2	-0.32320267
148	0x3dae97a9	0.08525021
149	0xbf321ba8	-0.6957345
150	0x3e06ce9b	0.13164751
151	0x3d70e698	0.05881366
152	0xbdff5033	-0.12466469
153	0x3efa0a15	0.48835817
154	0x3f5a27f3	0.8521721
155	0xbf1ffa53	-0.6249134
156	0x3ec60c58	0.38681293
157	0xbe83e74e	-0.2576241
158	0x3e068834	0.13137895
159	0xbe3d54d7	-0.18489395
160	0x3e8be30e	0.27321666
161	0x3e63cf5d	0.22247072
162	0xbef6c9ef	-0.48200938
163	0x3c3ca04a	0.011512825
164	0x3ed32b69	0.41244057
165	0xbe643cac	-0.2228877
166	0x3e88d357	0.2672374
167	0x3e611904	0.21982199
168	0xbe6b4af0	-0.22977805
169	0xbcf66fa9	-0.03008254
170	0x3f26df03	0.6518404
171	0x3e213247	0.15741836
172	0x3ec9abc6	0.39388865
173	0x3f05eeaa	0.523173
174	0xbd278f45	-0.040908117
175	0x3de8abae	0.1136087
176	0x3ed75459	0.4205654
177	0xbef10803	-0.47076425
178	0x3ef21348	0.47280335
179	0xbf3c8bb1	-0.7365065
180	0x3ee21567	0.44156954
181	0x3ea609f2	0.32429463
182	0x3e9af59b	0.30265507
183	0x3f074825	0.5284446
184	0x3f1c8504	0.61140466
185	0xbdbfcf29	-0.093656845
186	0x3eb9452c	0.36185586
187	0xbeded913	-0.4352499
188	0x3d530510	0.0515185
189	0x3de02626	0.10944776
190	0x3f06e199	0.52687985
191	0x3ed9c1b6	0.42530602
192	0xbe3b8b47	-0.18314849
193	0x3ed7de69	0.42161873
194	0xbeba02e8	-0.36330342
195	0xbedc7bb8	-0.4306314
196	0x3e72597b	0.23666947
197	0xbebaf30a	-0.3651355
198	0xbe202367	-0.15638505
199	0xbec7e743	-0.39043626

gcn_list.1.weight f4 [10, 10]
0	0xbc82d0cb	-0.0159687
1	0x3f16fdfb	0.58981293
2	0xbee06915	-0.4383017
3	0xbe1c3f1d	-0.15258451
4	0x3d9856cd	0.07438431
5	0x3eb980fe	0.36231226
6	0xbe5a3dca	-0.21312633
7	0x3ed1bc99	0.409642
8	0x3edd4239	0.43214586
9	0x3ebc550f	0.36783645
10	0xbc99a828	-0.018756941
11	0x3dc95d6f	0.09832274
12	0x3d0e5ee8	0.03475848
13	0x3d8bc172	0.06824006
14	0x3e994431	0.29934838
15	0x3d79c2b5	0.060976703
16	0xbee12993	-0.4397703
17	0xbead6afa	-0.3387068
18	0x3f2201aa	0.6328379
19	0xbde7ecb0	-0.113244414
20	0x3e114df9	0.141899
21	0x3f076ec2	0.5290338
22	0x3ec2b35b	0.38027462
23	0xbc0cdf17	-0.008598111
24	0xbeb61f6c	-0.35570848
25	0x3ecd7c5a	0.40133935
26	0xbe2060c5	-0.15661915
27	0x3d3c50ba	0.045975424
28	0xbe0439c5	-0.12912662
29	0xbd80d042	-0.06289722
30	0x3c7e5d8c	0.015525233
31	0x3f19c486	0.60065496
32	0x3dcabfe5	0.09899882
33	0x3f1daebc	0.6159475
34	0x3f0a4741	0.54014975
35	0xbe9f0135	-0.31055608
36	0x3e8fa0ac	0.2805227
37	0xbec3b77e	-0.3822593
38	0x3bbafc6e	0.0057063615
39	0x3ea40383	0.3203393
40	0x3e9b6de3	0.30357274
41	0x3ee773d4	0.45205557
42	0xbd72268c	-0.059118792
43	0x3cc43881	0.023952724
44	0x3eba7957	0.364207
45	0xbeeedaa6	-0.4665119
46	0x3eff4606	0.4985811
47	0xbebc5ecc	-0.36791074
48	0x3e1b9d1f	0.15196656
49	0x3d00d275	0.031450707
50	0xbda359c8	-0.07976109
51	0xbddde780	-0.10835171
52	0x3f542a70	0.82877254
53	0xbe9410be	-0.28919023
54	0xbecdf310	-0.40224504
55	0x3d75e0cc	0.060028836
56	0xbe2b3dd1	-0.167228
57	0x3f16b4a1	0.5886937
58	0xbea574c8	-0.3231566
59	0xbede9a15	-0.4347693
60	0xbed309a4	-0.41218293
61	0x3f0c1991	0.5472651
62	0x3e777b0e	0.24168035
63	0x3f1ce639	0.6128879
64	0x3f06b96d	0.5262669
65	0xbe5be7ff	-0.21475218
66	0xbe393b91	-0.18089129
67	0x3ddf654b	0.10907992
68	0x3f3527be	0.70763767
69	0x3ec0b34a	0.37636787
70	0x3e43ca8b	0.19120233
71	0xbeafd66e	-0.34343284
72	0xbdc40514	-0.09571281
73	0x3c310916	0.010805389
74	0xbeaf12ea	-0.34194118
75	0xbeaf497b	-0.3423575
76	0x3f4894ea	0.78352225
77	0xbe37b114	-0.17938644
78	0xbe062c0f	-0.13102745
79	0xbc6a3c4d	-0.014296603
80	0x3e4bea39	0.19913568
81	0xbec4e936	-0.38459176
82	0xbe9ae538	-0.30253005
83	0x3ed5c10a	0.4174884
84	0x3e112282	0.1417332
85	0x3f0561ad	0.52102166
86	0xbc67a7da	-0.01413914
87	0x3e88ea95	0.26741472
88	0xbd3826aa	-0.044958748
89	0x3b521122	0.003205367
90	0xbe40597c	-0.18784136
91	0x3de522e8	0.111882985
92	0x3f0072a2	0.50174916
93	0xbd5209d0	-0.05127889
94	0xbdd35608	-0.103191435
95	0xbeaa9ced	-0.3332285
96	0x3f1f6646	0.6226543
97	0xbe085e80	-0.13317299
98	0x3e71b1ad	0.23602934
99	0xbe325ed4	-0.17418987

gcn_list.2.weight f4 [10, 10]
0	0xbb5174cc	-0.0031960486
1	0x3eee5396	0.46548146
2	0xbf031288	-0.5120015
3	0x3ee22cb6	0.44174737
4	0x3ed9e745	0.42559257
5	0xbf372f78	-0.71556807
6	0x3ed181ed	0.40919438
7	0x3ed71778	0.42010093
8	0xbd2cbd5c	-0.042172775
9	0xbea6868f	-0.32524535
10	0xbebf443f	-0.37356755
11	0x3e32fb25	0.17478617
12	0x3ead9375	0.33901563
13	0xbe9536a8	-0.29143262
14	0x3e9159fb	0.28388962
15	0x3eedbe08	0.46434045
16	0xbec1acc7	-0.3782713
17	0xbda74fb6	-0.081695005
18	0x3eb08fcf	0.34484717
19	0x3e4b2a66	0.19840392
20	0x3ee396a0	0.44450855
21	0x3f255312	0.6457988
22	0xbf0cea98	-0.5504546
23	0x3ed2530a	0.4107898
24	0x3f4ea7d8	0.8072486
25	0x3e11723d	0.14203735
26	0x3f31865e	0.69345653
27	0x3e8dca0f	0.2769322
28	0xbca20d4d	-0.019781733
29	0xbedf3ac5	-0.43599525
30	0xbed61bb0	-0.41818
31	0xbe9ef38b	-0.31045184
32	0x3f2dfcbe	0.6796378
33	0x3e90c68d	0.28276482
34	0xbe994db8	-0.29942107
35	0x3ea0fc1a	0.31442338
36	0x3eaab1fb	0.33338913
37	0x3ef1448f	0.4712262
38	0x3f1a8faa	0.60375464
39	0x3f0f95c1	0.5608788
40	0xbcf6453d	-0.030062312
41	0xbc58020c	-0.013184082
42	0x3f3eb36d	0.7449253
43	0x3db68b78	0.0891332
44	0xbeba4e4e	-0.36387867
45	0x3f44f50d	0.7693642
46	0x3cb10296	0.021607678
47	0x3da0f935	0.078600325
48	0xbd350ee5	-0.044203658
49	0x3eef8ee4	0.46788704
50	0xbe258e94	-0.1616767
51	0x3f16842d	0.58795434
52	0xbd8fe631	-0.070263274
53	0x3e8a1f2b	0.26976904
54	0x3e15aaff	0.14616011
55	0x3e5a7a68	0.21335757
56	0xbd4d8532	-0.050175853
57	0x3e80fdc8	0.2519362
58	0xbed013ee	-0.40640205
59	0x3e062ceb	0.13103072
60	0xbdeee832	-0.116653815
61	0x3d6f0f41	0.058364157
62	0xbf03b5a7	-0.51449054
63	0x3f3935ca	0.723477
64	0x3f239365	0.6389678
65	0x3e6fabe7	0.2340542
66	0x3f3b1ffb	0.73095673
67	0xbeda6796	-0.42657155
68	0xbefe814e	-0.49708027
69	0xbe6f4e5d	-0.23369737
70	0xbd88e968	-0.06685144
71	0x3f48c816	0.78430307
72	0xbecb457f	-0.3970146
73	0x3bfcd797	0.00771613
74	0xbe8c40d2	-0.27393204
75	0xbefecd60	-0.49766064
76	0x3f3bedd7	0.7340979
77	0x3f061b2a	0.523852
78	0x3e7782d8	0.24171007
79	0x3ebbb982	0.3666497
80	0x3ee61647	0.4493887
81	0xbdbc0ade	-0.0918176
82	0x3f10f9f3	0.5663139
83	0x3e8554ed	0.26041356
84	0x3ded94cd	0.11600647
85	0x3f55bf0a	0.8349463
86	0x3d1e52c9	0.03865317
87	0x3dcce47b	0.10004517
88	0x3e129b98	0.14317167
89	0x3f18a5da	0.5962807
90	0xbe0f639d	-0.14002843
91	0xbe0430fa	-0.12909308
92	0x3d568f2b	0.05238263
93	0xbf147404	-0.57989526
94	0xbf00bbfe	-0.50286853
95	0x3f319091	0.69361216
96	0x3dd34494	0.103158146
97	0xbeb58b14	-0.3545767
98	0x3d369b0c	0.044581458
99	0x3f47b720	0.780138

cam.cam_weights f4 [10, 2]
0	0x3e9d75a8	0.30753827
1	0xbe91ea61	-0.2849913
2	0x3eebbd02	0.4604264
3	0xbef9138d	-0.4864773
4	0xbecd6726	-0.4011776
5	0x3f0537f4	0.520385
6	0x3ef0fe2b	0.47068915
7	0xbe2b009b	-0.1669945
8	0x3ee87994	0.45405257
9	0xbf0c6265	-0.5483764
10	0xbeb5bb0e	-0.35494274
11	0x3c168114	0.009186048
12	0x3f0cfea0	0.55076027
13	0xbeaafa7b	-0.33394226
14	0x3e01fdd0	0.12694478
15	0x3d55bbe6	0.052181147
16	0xbe629aa3	-0.22129302
17	0x3e0b90af	0.13629411
18	0xbd8fc2f3	-0.070196055
19	0x3f0a590f	0.5404214
