model/synth_l3_f5.pth (torch, 3248 bytes, 4 tensors)

gcn_list.0.weight f4 [5, 10]
0	0xbe3b78e1	-0.1830783
1	0x3f147c47	0.5800213
2	0xbf28c34e	-0.6592301
3	0xbf36716a	-0.71266806
4	0xbf03e507	-0.51521343
5	0x3e9c09ce	0.3047623
6	0x3eb8e43d	0.36111632
7	0x3f0d8333	0.5527832
8	0x3e04ae8f	0.12957214
9	0xbe00fd45	-0.12596615
10	0xbeb18a04	-0.3467561
11	0x3ecc296b	0.3987535
12	0xbf3c1752	-0.73473084
13	0xbee6ee06	-0.45103472
14	0xbe51464d	-0.20436974
15	0x3e384f06	0.17998895
16	0x3f0b4f7b	0.5441815
17	0x3f0195c0	0.50619125
18	0xbe97b339	-0.29628924
19	0xbeca959e	-0.39567274
20	0x3e19713b	0.149846
21	0x3f2f9780	0.68590546
22	0xbe2635ee	-0.1623151
23	0x3ea6b6e4	0.3256141
24	0xbeb9115e	-0.36146063
25	0x3eda876c	0.42681444
26	0x3f3a5939	0.7279239
27	0xbf05ebaa	-0.5231272
28	0xbed2e353	-0.4118906
29	0xbe934d1a	-0.2876976
30	0xbe675c8a	-0.22593895
31	0x3f26f551	0.65218073
32	0xbf036820	-0.5133076
33	0xbeb8f032	-0.36120754
34	0xbf0a5bac	-0.5404613
35	0xbef3a9d3	-0.47590503
36	0xbd99e4f8	-0.075143754
37	0x3f033797	0.512567
38	0x3e9e8cea	0.30966884
39	0x3ea09975	0.31367078
40	0x3dce9e40	0.100887775
41	0xbe2bbf94	-0.167723
42	0x3e30ff1e	0.1728482
43	0xbf21d9c8	-0.6322293
44	0xbf0bd288	-0.5461812
45	0xbe87de8f	-0.26536986
46	0x3ee1b994	0.44086897
47	0x3ec56ba6	0.38558692
48	0xbe7f6bad	-0.24943419
49	0xbdfcafe8	-0.12338239

gcn_list.1.weight f4 [10, 10]
0	0x3eaf7447	0.342684
1	0x3f0a2c6c	0.5397403
2	0x3eb75108	0.3580401
3	0x3e1f0e09	0.15532698
4	0x3e99ad41	0.30014995
5	0xbdf31fd1	-0.11871303
6	0x3e6b7e89	0.22997488
7	0xbe8fb50f	-0.28067824
8	0xbeb75e71	-0.3581424
9	0xbe6e26b5	-0.23256953
10	0x3ec911e1	0.39271453
11	0x3d973191	0.07382501
12	0xbe4f4ff8	-0.2024535
13	0x3eaf82ce	0.34279484
14	0x3e4edd17	0.20201527
15	0xbcc37d2b	-0.023863396
16	0x3d1b487c	0.037910923
17	0x3e1ed09c	0.15509266
18	0x3f013e30	0.50485516
19	0x3f36be48	0.71384096
20	0xbefd6d30	-0.49497366
21	0xbe2666fb	-0.16250221
22	0x3ebc9014	0.36828673
23	0x3f03958d	0.5140007
24	0x3ed36b23	0.41292676
25	0x3f20ceab	0.6281535
26	0x3e584656	0.21120581
27	0xbe7d5c6c	-0.24742287
28	0x3cb0c8c4	0.021580108
29	0xbeb4fd37	-0.35349438
30	0xbf03caf7	-0.51481575
31	0x3ef71667	0.4825928
32	0x3f15e745	0.58556014
33	0xbed7cac5	-0.42146888
34	0x3cf6fe0b	0.030150434
35	0x3d93e101	0.072206505
36	0x3cc9c15d	0.024628336
37	0xbd75bf2b	-0.059996765
38	0x3e6e1bd3	0.23252802
39	0xbe8e59c6	-0.27802867
40	0x3dffc3ed	0.12488542
41	0x3eaace55	0.33360544
42	0x3f1b9c53	0.60785407
43	0x3e9979cd	0.2997574
44	0xbf181872	-0.594123
45	0xbe33f623	-0.17574362
46	0x3ee8578a	0.45379287
47	0x3edd5116	0.43225926
48	0xbeedf569	-0.46476296
49	0xbea6b2e0	-0.32558346
50	0x3f14c291	0.58109385
51	0x3e936042	0.28784376
52	0xbde57e0c	-0.11205682
53	0xbcc71d3c	-0.024305932
54	0xbf25101f	-0.64477724
55	0x3e78286f	0.24234174
56	0xbe960782	-0.29302603
57	0xbea0c654	-0.31401312
58	0x3db37e37	0.08764308
59	0x3e7008e9	0.23440899
60	0xbd3ce935	-0.04612084
61	0x3e2cc1fe	0.16870877
62	0xbe567dd7	-0.20946442
63	0x3f28007b	0.65625733
64	0x3e6e5055	0.23272832
65	0xbea1a9f2	-0.3157497
66	0xbd2c6990	-0.04209286
67	0x3cd95bbd	0.026533002
68	0x3e8363a2	0.2566195
69	0x3eb92ec8	0.36168504
70	0x3e993dc3	0.29929933
71	0xbd877722	-0.0661452
72	0xbdc20acd	-0.09474716
73	0x3ec2242d	0.37918225
74	0xbf17ede8	-0.5934739
75	0xbe427539	-0.1899003
76	0xbdd2e32a	-0.10297234
77	0xbe217d82	-0.15770534
78	0xbb3771da	-0.0027991445
79	0xbe44a980	-0.19205284
80	0xbe307b9c	-0.17234653
81	0x3e1873c0	0.14887905
82	0xbe2a7a91	-0.16648318
83	0x3c4117b7	0.011785439
84	0x3edb07a6	0.42779273
85	0x3d2a41c5	0.04156663
86	0x3dd1a61d	0.10236762
87	0x3e4a7efe	0.19775006
88	0x3ddc660c	0.107616514
89	0x3ebd4c89	0.36972454
90	0x3ef52752	0.47881562
91	0x3eb96562	0.3621016
92	0x3f362589	0.71151024
93	0x3c839923	0.016064232
94	0xbee7a19e	-0.45240492
95	0xbde965b8	-0.113963544
96	0x3eedccc3	0.46445283
97	0x3e4d0c61	0.20024253
98	0xbe85d12f	-0.26136157
99	0xbec85cb5	-0.3913323

gcn_list.2.weight f4 [10, 10]
0	0xbef02651	-0.46904233
1	0xbe683d52	-0.22679642
2	0xbe295086	-0.16534624
3	0x3ed8fc13	0.42379817
4	0x3ecc79db	0.39936718
5	0xbeb793d5	-0.35854974
6	0x3ef72637	0.48271343
7	0xbedb3499	-0.42813566
8	0xbe89f64c	-0.26945722
9	0xbd955c66	-0.07293014
10	0x3daae209	0.08343894
11	0xbce5b8f7	-0.0280423
12	0xbe94f0d0	-0.29089975
13	0xbecf510c	-0.4049152
14	0xbd2bba6b	-0.04192583
15	0x3e807da8	0.25095868
16	0xbe1962fe	-0.14979169
17	0x3e807cbe	0.2509517
18	0xbf22b990	-0.63564396
19	0x3d19a3b4	0.037509635
20	0x3f3dbc40	0.7411537
21	0xbe8eb7db	-0.27874646
22	0x3f40a5c5	0.75252944
23	0x3dd4e6c3	0.10395577
24	0xbf171cf0	-0.5902853
25	0x3f1f755a	0.6228844
26	0xbdc37ade	-0.095449194
27	0xbe0a2b65	-0.13493116
28	0x3ea27c09	0.31735256
29	0xbef51248	-0.4786551
30	0x3e0c8caa	0.13725534
31	0x3d888362	0.06665684
32	0x3ed8eee8	0.4236977
33	0x3e8bcb82	0.27303702
34	0x3ebee694	0.37285292
35	0x3eb98a79	0.3623846
36	0x3d50df32	0.050994106
37	0xbda0fc1f	-0.07860588
38	0xbef84a2e	-0.48494095
39	0x3ed9be7c	0.4252814
40	0x3f034c73	0.5128853
41	0x3ecc1ca7	0.3986561
42	0xbe75e926	-0.2401472
43	0x3d8cfae8	0.06883794
44	0xbeae286b	-0.3401521
45	0xbe181c28	-0.14854491
46	0xbe63f3ab	-0.2226092
47	0x3e408b6d	0.18803187
48	0xbec3120c	-0.38099706
49	0x3d01b2a5	0.03166451
50	0x3e3f3534	0.18672639
51	0x3eac39a5	0.3363773
52	0xbe8d7776	-0.27630204
53	0xbec21143	-0.37903795
54	0xbe870d3e	-0.2637729
55	0x3f13629f	0.5757236
56	0xbdae7e88	-0.08520228
57	0x3f1645c7	0.5870022
58	0x3e195fb3	0.14977913
59	0x3e1e4fa2	0.15460065
60	0x3e84af33	0.25914916
61	0xbe4309e1	-0.19046737
62	0x3e9ff5db	0.3124226
63	0xbe7c890e	-0.24661657
64	0xbe00b6cf	-0.12569736
65	0x3eb5ec27	0.35531732
66	0xbf0772a8	-0.52909327
67	0xbe22a29c	-0.15882343
68	0x3e9884e5	0.2978889
69	0xbf024a9b	-0.5089509
70	0x3cec926f	0.028878419
71	0x3f1e1450	0.61749744
72	0x3ed53ac8	0.4164641
73	0x3d8bc942	0.06825496
74	0xbeccccda	-0.4000004
75	0x3f1354c9	0.57551247
76	0xbea02fdb	-0.3128651
77	0xbdeb2d07	-0.11483198
78	0xbea57e35	-0.3232285
79	0x3cff0255	0.031129042
80	0xbc4562a6	-0.012047445
81	0x3f22cb70	0.6359167
82	0xbd0cf5fa	-0.03441427
83	0x3f2e9945	0.6820262
84	0x3f00c21b	0.5029618
85	0xbe4e5813	-0.20150785
86	0x3eeb64a7	0.4597523
87	0xbecd831b	-0.40139088
88	0xbe940471	-0.2890964
89	0x3eb5986e	0.35467857
90	0x3dbaf10b	0.091280065
91	0x3f278ed8	0.6545234
92	0xbec24d20	-0.37949467
93	0x3e6c8212	0.23096493
94	0x3efcb8ea	0.49359828
95	0xbec5917d	-0.3858756
96	0x3f22c13f	0.6357612
97	0xbef768e8	-0.48322225
98	0xbdbf19a0	-0.093310595
99	0x3e18c009	0.14917006

fc.weight f4 [2, 10]
0	0x3c5f8cc5	0.013644402
1	0xbe1ff7b4	-0.15621835
2	0x3ed0ec22	0.40805155
3	0xbe9b0ab0	-0.3028159
4	0xbeb4e84e	-0.35333484
5	0x3e041598	0.12898862
6	0xbf0ce3b2	-0.55034935
7	0x3e2c60db	0.16833822
8	0xbdc62c02	-0.096763626
9	0xbecbe582	-0.39823538
10	0xbeb988e5	-0.36237255
11	0x3ec2794c	0.37983167
12	0x3cab4995	0.02090911
13	0x3ee7fb37	0.4530885
14	0x3e8f82d8	0.28029513
15	0xbeb3fe44	-0.35154927
16	0x3e181dd4	0.14855129
17	0x3d8ae984	0.06782821
18	0x3e51c1f5	0.20484145
19	0x3e8bdecb	0.27318415
