model/synth_l3_f15.onnx (onnx, 2845 bytes, 4 tensors)

gcn_list.0.weight f4 [15, 10]
000000 b0 aa 23 3e 1e 3a f5 3e ae 41 08 bf 70 e7 54 3d
       0.15983081 0.47895902 -0.5322522 0.05197853
000010 a5 c5 ca be 74 cf 67 be 24 0b 9c be ec d3 c5 3e
       -0.39603916 -0.22637731 -0.3047725 0.38638246
000020 ef 81 51 3e 8f 97 8e bd fe bd 13 3d 01 dd 60 3e
       0.20459722 -0.06962501 0.036069863 0.21959306
000030 00 4d 2c bf 69 0f 80 bd 5c e1 db be d1 de 6b be
       -0.6730499 -0.06252939 -0.42945373 -0.23034216
000040 c1 cb 85 be fc 55 44 3e 9c b6 25 be 9a d8 08 bf
       -0.26132014 0.19173425 -0.16182941 -0.5345551
000050 35 c5 90 3e 17 fe 0a 3f 9e d1 b3 be fc 2c 03 3f
       0.28275457 0.5429396 -0.35120863 0.51240516
000060 aa 8a 89 be 88 e3 a3 3d f4 ed 8d 3e f8 36 02 bf
       -0.26863605 0.080023825 0.27720606 -0.50865126
000070 e0 3e 7c be 14 f0 85 be 21 47 54 3e 10 e1 12 3f
       -0.2463336 -0.26159728 0.20730259 0.5737467
000080 47 77 ee be fe 53 5c 3e 93 95 91 be 5d e2 12 bf
       -0.46575376 0.21516415 -0.2843443 -0.5737665
000090 a1 0a 00 bf b2 c8 ba 3e b5 15 e1 3e 09 fa c1 3e
       -0.5001622 0.36481243 0.43961874 0.37886074
0000a0 df 9f 94 3e ed b4 84 bd 53 14 51 3e 4c dc 07 be
       0.29028222 -0.06479821 0.2041791 -0.1326763
0000b0 62 95 ff be a1 2d 58 be ba 56 93 3e 66 18 69 3d
       -0.49918658 -0.21111156 0.28777105 0.056908034
0000c0 42 17 2c 3e fe 6f 07 be 73 0b d1 3e d1 e7 2f 3f
       0.16805747 -0.13226315 0.40829048 0.687131
0000d0 10 04 c8 3d 69 eb ee 3e 8d 25 c4 3e 20 45 b6 be
       0.097664 0.4666398 0.383099 -0.35599613
0000e0 bf 6a 02 bd 62 f1 be be f5 e0 12 be 46 7d 82 be
       -0.031840082 -0.37293535 -0.14343627 -0.254862
0000f0 9b 15 ce 3e de 7f bc 3e 5b da f5 be 60 7e 06 3f
       0.4025086 0.36816305 -0.48018155 0.5253658
000100 4f 00 14 3e 19 5d 70 be aa 6e 86 be f3 a3 0e bd
       0.14453243 -0.23473014 -0.26256305 -0.034824323
000110 6e 00 14 3f 19 f1 0a 3f e9 1e ec 3d aa 34 a4 3e
       0.57813156 0.54274136 0.11529333 0.3207143
000120 4b 49 79 be d2 4e 54 3f 82 43 7b 3e 36 3d d7 3e
       -0.24344365 0.8293277 0.24537471 0.42038888
000130 ec 2e a3 be e0 cf 12 bf 60 57 01 3f 10 8b 38 bf
       -0.31871736 -0.5734844 0.5052395 -0.7208719
000140 b0 d5 0e be 17 d6 36 3f 70 ef 21 3e 93 df a9 bd
       -0.13948703 0.71420425 0.15813994 -0.082945965
000150 56 da a2 be 8b c4 b0 be f3 60 d9 be 63 39 df be
       -0.31807202 -0.3452495 -0.4245678 -0.4359847
000160 0c 6a 1f 3f 9f ce 07 bf 10 3f de 3e a2 18 eb 3e
       0.6227119 -0.53049654 0.43407488 0.4591723
000170 12 dd 6e 3e 12 cd ef 3e 0f d9 20 bf 5f 8a db be
       0.23326519 0.46836144 -0.62831205 -0.42879006
000180 52 19 2a 3d 60 a7 c5 3c e8 a0 10 3e 1d 54 c7 be
       0.041528054 0.024127662 0.14123881 -0.3893136
000190 ed 93 26 3f 84 25 05 3f aa 59 ec be 7d 21 b1 3e
       0.65069467 0.5201037 -0.46162158 0.34595862
0001a0 f3 ab 1a bf 77 b7 93 be 24 56 0a bf 20 5a 23 bf
       -0.60418624 -0.2885091 -0.5403769 -0.63809395
0001b0 8f 70 f4 3e 2c 4a 23 be 15 6c 80 3e 3d e3 0b 3f
       0.47742125 -0.15946263 0.2508246 0.54643613
0001c0 52 7c 05 bf b5 d6 39 3f b5 6d 9e 3e 94 59 0f bf
       -0.5214282 0.7259324 0.30943075 -0.5599606
0001d0 0d 64 c7 be cc 3f b6 be 48 8a c7 3e 20 ad 0a 3d
       -0.3894352 -0.35595548 0.38972688 0.03385651
0001e0 14 21 dd 3c 39 a9 54 3e f1 72 83 3e fd 32 9e 3e
       0.026993312 0.20767678 0.2567363 0.30898276
0001f0 b8 a3 a9 be 62 0c d2 bd 4b cd 7b 3e cc 69 a2 bc
       -0.3313272 -0.10256268 0.24590032 -0.019825839
000200 6e 6a 54 be 88 a9 8b be c0 cb 67 3e 35 07 da 3e
       -0.20743725 -0.2727778 0.22636318 0.42583624
000210 76 a7 03 bf 94 9c c9 3e b2 1f 29 3e 6d c6 02 bf
       -0.514274 0.39377272 0.16515997 -0.51084024
000220 11 3c b8 be 3d dd d1 be 6c 85 ff 3e 95 fb c6 3d
       -0.35983327 -0.40989104 0.4990648 0.09715954
000230 27 9e 1d 3f fa 9d 0b 3f 10 cf 35 3e 79 94 c8 3e
       0.61569446 0.5453793 0.1775477 0.39175776
000240 82 71 28 bf d8 ad 32 bf 2d 4a 80 3e 08 a7 64 be
       -0.657982 -0.69796515 0.25056592 -0.22329342
000250 43 74 c8 3e 67 fb 08 bf
       0.391512 -0.5350861

gcn_list.1.weight f4 [10, 10]
000000 d4 5f de be 07 eb d9 be 0c 50 21 be af 01 f8 3e
       -0.43432486 -0.42562124 -0.15753192 0.48438784
000010 8b b9 fc 3e 68 1d c2 be b4 77 1a 3f 80 22 55 bd
       0.49360308 -0.3791306 0.603389 -0.052034855
000020 4e 42 0d 3e 8a 80 16 3e 87 57 36 be 9d c2 27 be
       0.13794824 0.14697471 -0.17806827 -0.16382833
000030 7d a1 ec be f4 7a 29 be 1f f9 97 3e 08 d9 c3 bc
       -0.46216956 -0.16550809 0.29682252 -0.0239072
000040 a7 c9 17 3e 70 33 1e 3f 2f df 9d be e4 82 be 3e
       0.14823018 0.6179724 -0.30834338 0.37209237
000050 1e 54 20 3f a1 dd 2b bc 69 b7 c3 3e 45 d3 03 3e
       0.6262835 -0.010489852 0.38225868 0.12873562
000060 82 25 df be d6 f3 12 3f 4e 33 81 bd 11 a5 74 be
       -0.43583304 0.57403314 -0.06308614 -0.23891093
000070 03 db 40 3f 56 e6 76 be b4 48 5e 3d 61 e7 d3 bd
       0.75334185 -0.24111304 0.054268554 -0.103468664
000080 6c cd ca 3e 75 51 a4 3e 5b eb f6 3e 97 5c 53 3e
       0.3960985 0.32093397 0.48226437 0.20640789
000090 62 fa ed 3d 5a dd 51 3e 71 b5 30 be d2 1d 20 3f
       0.11620022 0.20494595 -0.17256714 0.625455
0000a0 11 35 01 3f 0a 91 fb 3e 73 af eb be bc f8 58 bc
       0.504716 0.49134094 -0.46032295 -0.013242897
0000b0 ab 9d b2 be 5d f8 33 be 8b dc a2 be 7d aa 76 3e
       -0.34885916 -0.17575212 -0.31808886 0.24088474
0000c0 58 29 7f 3c e9 37 bc 3d 12 b2 e6 3d 25 79 ed 3e
       0.015573822 0.091903515 0.11264433 0.46381488
0000d0 6e 0b 09 bf 57 1e d7 be 67 fb a4 be a0 aa f9 3e
       -0.53533065 -0.42015335 -0.32223055 0.4876299
0000e0 05 78 8f be 11 81 f1 3e 19 56 f5 3e 28 11 24 3e
       -0.28021255 0.47168782 0.4791725 0.1602217
0000f0 dd 03 be 3d a6 10 29 3d 78 03 08 bb 81 af 11 be
       0.092780806 0.041275643 -0.002075402 -0.14227106
000100 52 d2 74 3d ed 63 59 3e 6d 09 dd be c8 3f 2d be
       0.05977089 0.21229525 -0.43171254 -0.16918862
000110 0f 12 3c 3f 58 c6 83 be b0 b8 e3 3d f8 27 32 3f
       0.73465055 -0.25737262 0.11119211 0.6959224
000120 fb ed 8f 3d c5 35 36 bd 97 f1 d4 be 5b e7 01 3f
       0.07027813 -0.044484872 -0.41590568 0.50743645
000130 46 a5 c7 be 77 32 fa bd d4 ee f9 3d ac f6 f0 3d
       -0.3899328 -0.12216657 0.12203756 0.11765799
000140 fe 30 98 3a 49 fb e8 3e aa 04 53 3d d3 de 1f 3f
       0.001161128 0.45504215 0.05151812 0.6244938
000150 7a 8b 1b 3f 11 48 89 be cb a5 f9 3e 97 08 4f bd
       0.607597 -0.26812795 0.48759302 -0.0505453
000160 d5 26 86 3a 21 b2 08 3f a9 16 97 3e d5 ec 08 3f
       0.0010234962 0.53396803 0.29509476 0.53486377
000170 0e 7c 94 be 82 bd 0a bd 2e e0 91 3e e6 3e a9 be
       -0.29000896 -0.033872135 0.28491348 -0.330558
000180 98 4a d1 3e 97 87 cd be 90 53 ad 3e c8 de 56 3d
       0.40877223 -0.4014251 0.33852816 0.052458555

gcn_list.2.weight f4 [10, 10]
000000 75 6d 90 be 9a de 6b 3e 24 97 24 3f 39 ca 9f be
       -0.2820851 0.23034135 0.6429312 -0.3120897
000010 08 79 ab be cf 29 91 be 1f 47 22 bf 54 16 d7 3e
       -0.33490777 -0.2835221 -0.6338977 0.42009223
000020 5f 92 e8 be d7 61 a7 bd 55 95 a4 be 9c 16 dd 3e
       -0.45424172 -0.08172958 -0.3214518 0.43181312
000030 26 ce d3 3e 87 a9 a6 3e 6a 5c 4f 3e 9f 31 50 be
       0.41368216 0.32551214 0.20250097 -0.20331429
000040 ba 72 1f be 34 13 93 3e 8d f7 aa 3e 2d ce ab 3e
       -0.15571108 0.28725588 0.3339199 0.33555737
000050 32 24 87 be 60 58 02 be b1 e5 cc be 2e 71 94 3d
       -0.26394802 -0.12729025 -0.4001899 0.0724815
000060 c6 c8 8a be 6f 63 fe be 9a 30 ee 3e 10 04 83 be
       -0.27106303 -0.49685237 0.46521455 -0.25589037
000070 aa 00 09 be c4 f9 95 3e 28 ef 66 bb aa 74 95 be
       -0.1337916 0.2929212 -0.0035237763 -0.2919057
000080 06 6f eb be 1a 28 05 3f be 40 a2 3e 39 0a 22 3f
       -0.45983142 0.52014315 0.3169002 0.6329685
000090 36 8b 8d 3b a0 b1 4c 3e 3a c3 13 bd 93 b3 4a 3d
       0.0043195738 0.19989634 -0.036074854 0.04948766
0000a0 8a 8d a9 be 02 30 bc 3d b0 0c b5 bd 36 6d 9c 3e
       -0.33115798 0.09188844 -0.088403106 0.3055207
0000b0 59 91 96 3e dc 4d 81 3c a6 92 43 3f 14 88 0d bf
       0.29407766 0.015784197 0.7639564 -0.55285764
0000c0 d8 35 10 3f 26 f7 9a be 91 ed 94 be ce 19 97 3e
       0.5633216 -0.30266684 -0.290875 0.29511875
0000d0 54 d6 54 bd f6 c4 5b bd a9 30 02 3e ca 64 eb be
       -0.05196221 -0.053654633 0.12713875 -0.45975333
0000e0 68 7d 04 bd f3 95 df 3e 39 4f 65 bb 99 5b 5b 3e
       -0.03234616 0.4366909 -0.0034989847 0.2142166
0000f0 78 3a e4 be 94 0a b9 bd ab 96 0a bb c9 99 a3 3d
       -0.44575858 -0.09035221 -0.0021146934 0.079883166
000100 6a 72 0f 3f 8f 0b 37 3f 2c f4 a7 3d 46 35 c2 bd
       0.56033957 0.7150201 0.08200869 -0.09482817
000110 00 e6 05 3f 46 b0 77 bd 4f 9e 81 ba 10 6d 8f 3d
       0.5230408 -0.06047084 -0.0009889099 0.07003224
000120 22 3b 00 bf 61 cb 53 3e c4 8a 27 3f 7a 5f 3a 3f
       -0.5009023 0.20683052 0.65446115 0.72801936
000130 37 4c 19 3f 9a 7c be 3c 55 aa d8 3e d4 40 5a be
       0.5988192 0.023252774 0.42317453 -0.21313792
000140 c9 35 e8 be 5a 99 2a be c6 28 54 3f b1 62 be 3d
       -0.45353535 -0.16660061 0.82874715 0.09296168
000150 02 69 ce be cf 40 bf 3c 3c 10 75 3e c1 30 51 3f
       -0.4031449 0.023346333 0.23931974 0.8171502
000160 1f 3c 42 3e ce 0a 39 3f 61 18 e2 bd b2 38 f2 bd
       0.18968247 0.7228211 -0.11039806 -0.1182722
000170 58 27 af 3e 03 1e 01 3f b4 af ff bc a0 54 3f 3f
       0.34209704 0.5043642 -0.031211711 0.747385
000180 50 6c 16 3f 22 53 89 3e 95 cd 06 be 65 e6 51 3e
       0.5875902 0.26821238 -0.13164361 0.20498045

onnx::MatMul_18 f4 [10, 2]
000000 47 c1 12 be f2 da 39 be f8 e9 b6 3e 70 22 d8 be
       -0.14331542 -0.18149927 0.3572538 -0.42213774
000010 8e 5e 03 3e 1d d7 e0 be dd 9f 97 3d e8 f2 98 3e
       0.12829039 -0.43914118 0.074035384 0.29872823
000020 bc 6f 4c be 3c 93 da 3e 9d fa 38 be 10 a4 1c 3f
       -0.19964498 0.42690456 -0.18064351 0.6118784
000030 7b 41 db be b1 f8 12 3f 8d 08 ba 3e e6 ae fb be
       -0.42823395 0.5741072 0.3633465 -0.49156874
000040 c9 4a 8e be 59 93 22 be ed dd ad 3e ec 75 a3 be
       -0.27791432 -0.15876521 0.33958378 -0.31925905
