model/synth_l3_f10.pth (torch, 3448 bytes, 4 tensors)

gcn_list.0.weight f4 [10, 10]
0	0x3e8c7932	0.27436215
1	0x3e69d8d8	0.22836626
2	0x3ba3d3b4	0.004999602
3	0xbf560746	-0.8360485
4	0xbd872606	-0.06599049
5	0x3e62b68d	0.2213995
6	0x3d8f50e9	0.06997854
7	0x3f2ccb54	0.67497754
8	0xbf2e58b9	-0.6810413
9	0x3dcb45b1	0.09925402
10	0x3ea54981	0.32282642
11	0xbe8c93f2	-0.27456623
12	0xbed720da	-0.4201725
13	0xbc482efc	-0.012218233
14	0x3e42c8ac	0.19021863
15	0x3e1bf7e2	0.15231279
16	0x3e49127d	0.19635959
17	0x3f5b83bf	0.85747904
18	0xbeb60a8b	-0.3555492
19	0x3de52ffe	0.111907944
20	0x3f114e17	0.5675978
21	0x3e54bc63	0.20774989
22	0xbbea220c	-0.007145172
23	0x3e3a4679	0.18190946
24	0x3ecba2f1	0.39772752
25	0xbede7b55	-0.4345347
26	0x3edcc519	0.43119124
27	0xbec37afa	-0.3817976
28	0xbee8dc4d	-0.45480576
29	0x3e22bd24	0.15892464
30	0x3f087d5e	0.53316295
31	0xbc4dccb8	-0.012561016
32	0xbe9d5058	-0.3072536
33	0xbf6d107a	-0.92603266
34	0x3f039cce	0.5141114
35	0xbf719826	-0.94372785
36	0x3cb8e83d	0.022571677
37	0x3f76ee91	0.96457773
38	0xbe85b7bd	-0.26116744
39	0x3f2d68ed	0.6773823
40	0x3ed2ef12	0.4119802
41	0xbe7627a1	-0.24038555
42	0x3b3dfc50	0.0028989501
43	0xbf184e30	-0.59494305
44	0xbe9ce669	-0.3064454
45	0xbf1578b7	-0.5838732
46	0xbc61ed6b	-0.013789515
47	0x3f487723	0.7830679
48	0xbec6664b	-0.38749918
49	0x3e591ccc	0.21202391
50	0x3ef3f934	0.47651064
51	0x3f2896ca	0.65855086
52	0xbcfb0529	-0.030642109
53	0x3eeb20fc	0.45923603
54	0x3eecce90	0.46251345
55	0x3e0a6b13	0.13517408
56	0x3dabf9eb	0.083972774
57	0xbeb8c0e5	-0.36084667
58	0xbede44bb	-0.43411812
59	0xbd449bd9	-0.04800019
60	0x3ef73703	0.48284158
61	0x3e9ca8b2	0.30597454
62	0xbd8969b7	-0.06709617
63	0x3e2f5fa6	0.1712633
64	0x3edc2ad3	0.43001422
65	0x3dc244ed	0.09485803
66	0xbc58b519	-0.013226771
67	0x3ea2d6fa	0.3180464
68	0x3ec06937	0.37580273
69	0x3f1eda9a	0.6205231
70	0x3e2accb0	0.16679645
71	0xbf2d8763	-0.6778471
72	0x3e8086d2	0.2510286
73	0x3e542982	0.20718959
74	0x3f42e4a4	0.7613013
75	0x3e54859d	0.20754094
76	0x3e6724bd	0.22572608
77	0x3e8554c1	0.26041225
78	0xbec9d67d	-0.39421454
79	0x3ec88717	0.39165565
80	0xbe3a81e8	-0.18213618
81	0x3f00a0e4	0.502455
82	0x3e8c5fc3	0.2741681
83	0xbf40f598	-0.75374746
84	0x3e7e2d7f	0.24822043
85	0xbe6a90bb	-0.22906773
86	0x3e36c959	0.17850246
87	0xbdde4475	-0.10852901
88	0x3e2d132d	0.16901846
89	0xbe2b3bba	-0.16722003
90	0x3ef46b46	0.47738093
91	0x3e928893	0.28619823
92	0x3ce198c7	0.02753867
93	0x3df7f5f9	0.121074624
94	0xbeb2e941	-0.34943584
95	0xbf1051d2	-0.5637485
96	0x3e86a9ad	0.26301327
97	0x3f16a41f	0.5884418
98	0xbee144b6	-0.43997735
99	0x3d41e5d7	0.047338333

gcn_list.1.weight f4 [10, 10]
0	0x3f3c6d79	0.7360454
1	0x3f00d8b6	0.50330675
2	0x3d82ddd5	0.06389967
3	0xbe23509d	-0.1594872
4	0xbe8e5b26	-0.27803916
5	0xbd15885b	-0.03650699
6	0xbe88ade2	-0.26695162
7	0xbe3c8991	-0.18411852
8	0x3eb4fe2c	0.35350168
9	0x3e36ef7c	0.17864794
10	0xbce96d32	-0.028494451
11	0x3ecc848a	0.3994487
12	0xbe128d17	-0.14311634
13	0x3eeacd5c	0.45859802
14	0x3f004fc6	0.50121725
15	0xbf062e5e	-0.524145
16	0xbd30bfc5	-0.043151636
17	0xbda4e8b9	-0.08052201
18	0x3ee8409c	0.45361793
19	0x3e515d1c	0.20445675
20	0x3e6c5e52	0.23082855
21	0x3ae25683	0.0017268214
22	0xbe88ee1e	-0.2674417
23	0x3eb81742	0.35955244
24	0xbe9a375e	-0.30120367
25	0xbeca13ab	-0.3946813
26	0x3dade194	0.08490291
27	0xbe70204d	-0.23449822
28	0x3cc510c7	0.024055852
29	0xbe61689e	-0.22012565
30	0xbdef5a98	-0.11687201
31	0x3c97cd55	0.018530527
32	0xbeabee2b	-0.33580145
33	0x3e23af02	0.15984729
34	0x3f296e36	0.66183794
35	0x3c5cd85b	0.013479318
36	0x3e8c28b2	0.27374798
37	0x3e991b6d	0.29903737
38	0x3ed52866	0.41632384
39	0x3f0eecc7	0.55830044
40	0x3f2ca5a7	0.67440265
41	0x3ee0f448	0.43936372
42	0x3f2e47ab	0.68078107
43	0xbd0fc2b8	-0.035097808
44	0xbec20581	-0.37894824
45	0xbca995fe	-0.020701405
46	0x3ee8734d	0.45400468
47	0xbdf91157	-0.121615104
48	0x3e5523d1	0.20814444
49	0xbef01030	-0.4688735
50	0xbf2bcca3	-0.67109126
51	0xbf20a3ac	-0.62749743
52	0xbe9b98fb	-0.30390152
53	0x3f0efe98	0.5585723
54	0x3f1a60f1	0.6030417
55	0xbf12385c	-0.5711725
56	0x3f23cde6	0.6398605
57	0xbe9f8b6b	-0.31161055
58	0xbd30d223	-0.043169152
59	0x3d6a2e89	0.057173286
60	0x3e2ee6e9	0.17080273
61	0x3d99d882	0.07511999
62	0xbdd0afeb	-0.10189804
63	0xbf1747c4	-0.5909388
64	0x3bfd1dda	0.007724506
65	0xbd8b682b	-0.06806978
66	0xbe667d7e	-0.22508809
67	0x3ebd7eb3	0.37010726
68	0xbc1efd53	-0.009703952
69	0xbca6c4db	-0.02035754
70	0x3f4575d7	0.77132934
71	0x3d69bb03	0.057063114
72	0x3f4ad235	0.79227
73	0x3d7f78a9	0.06237093
74	0xbe90d42e	-0.2828688
75	0x3eb10515	0.3457419
76	0xbd70ce0a	-0.058790244
77	0xbe8fee18	-0.2811134
78	0x3f54c72a	0.831164
79	0xbeca30ba	-0.394903
80	0x3d39a742	0.045325525
81	0xbe53f769	-0.20699848
82	0x3ec629ab	0.38703665
83	0x3e8c0460	0.27347088
84	0x3f061117	0.5236983
85	0x3d9c2c49	0.07625634
86	0x3d691a2a	0.056909718
87	0x3d5913dc	0.052997455
88	0xbe773f9a	-0.24145356
89	0x3f09497a	0.5362774
90	0x3f25d8f9	0.647842
91	0x3f0a4ca0	0.5402317
92	0xbe0bcf16	-0.13653216
93	0xbd471285	-0.048601646
94	0xbe70a19c	-0.23499149
95	0xbe991f66	-0.29906768
96	0xbe906bbf	-0.28207204
97	0x3e4efb70	0.20213103
98	0x3d360a0e	0.044443183
99	0x3d108191	0.035279814

gcn_list.2.weight f4 [10, 10]
0	0xbd5b9737	-0.053611007
1	0x3e411416	0.18855318
2	0xbf041756	-0.5159811
3	0xbec6d25b	-0.38832363
4	0xbe850401	-0.25979617
5	0x3f297109	0.661881
6	0xbd02d5bf	-0.031942125
7	0x3f3ec80f	0.74524015
8	0x3eeaa894	0.4583174
9	0x3d7489a9	0.059701595
10	0xbd58074e	-0.05274134
11	0xbe5fea7a	-0.2186679
12	0x3d3b7081	0.04576159
13	0xbdf28629	-0.11841995
14	0x3d6c58a0	0.057701707
15	0x3ea71a21	0.32637122
16	0xbe8b79ac	-0.27241266
17	0x3cc56edf	0.024100719
18	0x3f2add2d	0.6674374
19	0xbed0e178	-0.4079702
20	0xbd80ba2c	-0.062855095
21	0x3eb2dc3c	0.3493365
22	0x3e09bc59	0.13450755
23	0x3b4e1b8c	0.0031449525
24	0xbecf91fb	-0.40541062
25	0x3f13bc24	0.57708955
26	0xbe033581	-0.12813379
27	0x3de08d9c	0.1096451
28	0x3d9ce2f4	0.076604754
29	0xbdce46e1	-0.10072113
30	0x3e31fefa	0.17382422
31	0x3f0f6dea	0.5602709
32	0x3cddf8bb	0.027096143
33	0x3f31d23a	0.69461405
34	0x3f07c556	0.53035486
35	0xbea22175	-0.3166615
36	0x3f08bce0	0.534132
37	0xbebce24c	-0.368914
38	0xbeab2820	-0.3342905
39	0x3ead9ef8	0.33910346
40	0x3ef71409	0.48257473
41	0x3f36d5a8	0.71419764
42	0xbe366b78	-0.17814434
43	0x3ea63f48	0.32470155
44	0x3f0cbb0f	0.5497293
45	0xbf308e4e	-0.6896714
46	0x3f3e92fc	0.7444303
47	0xbf108d04	-0.5646517
48	0xbe9c1c33	-0.30490264
49	0x3e54e7e5	0.20791586
50	0xbec744b3	-0.389196
51	0xbe32653b	-0.17421429
52	0x3ef670a8	0.48132825
53	0xbec46f88	-0.38366342
54	0xbe9eb2c7	-0.3099577
55	0x3df2e54b	0.118601404
56	0xbf05e9eb	-0.52310055
57	0x3ecc8a3e	0.3994922
58	0x3df0c430	0.1175617
59	0xbeb62313	-0.35573635
60	0xbd99136e	-0.07474409
61	0x3f0ee526	0.558184
62	0x3e62c744	0.22146326
63	0x3f38abc7	0.7213711
64	0x3eb55102	0.35413367
65	0xbea9ea87	-0.33186743
66	0x3e1fdcb6	0.15611538
67	0x3df3cc81	0.119042404
68	0x3e25263b	0.16127865
69	0x3e9aea8c	0.3025707
70	0xbd95c3ea	-0.07312758
71	0x3e080742	0.13284019
72	0xbeb872ee	-0.36025184
73	0x3f19a48b	0.600167
74	0xbc178673	-0.009248364
75	0xbf167baa	-0.58782446
76	0x3f7bc0ed	0.98341256
77	0xbe88743f	-0.2665119
78	0xbec9b449	-0.3939536
79	0x3ec4ec40	0.38461494
80	0x3d66c02f	0.056335624
81	0xbf132943	-0.57484835
82	0xbf0baae9	-0.54557663
83	0x3ed77fb7	0.42089626
84	0x3e945bd7	0.28976318
85	0x3f5503ab	0.8320872
86	0x3dc562ce	0.09637986
87	0x3ed2adf7	0.4114835
88	0x3e634953	0.2219594
89	0x3dd3f5fd	0.10349653
90	0xbcdb4a18	-0.02676873
91	0x3f03cbe8	0.5148301
92	0x3e179c6d	0.14805765
93	0x3eafcdf6	0.34336823
94	0x3de95c7b	0.113945924
95	0xbf00506f	-0.5012273
96	0x3f4d3d1b	0.80171365
97	0xbeba53de	-0.3639211
98	0xbe147998	-0.1449951
99	0x3def505c	0.11685249

fc.weight f4 [2, 10]
0	0x3d70e0e1	0.05880821
1	0x3e272e91	0.16326357
2	0xbe1870ce	-0.14886782
3	0x3eba5d76	0.3639943
4	0x3eb35c89	0.35031536
5	0xbf18bd34	-0.596637
6	0x3ed39476	0.41324204
7	0xbe94ca35	-0.29060522
8	0xbe002580	-0.12514305
9	0x3e4a1b9e	0.19737098
10	0xbef0f4cd	-0.47061768
11	0xbe1eed74	-0.15520269
12	0x3dc1644f	0.094429605
13	0xbed02325	-0.40651813
14	0xbe2c3753	-0.1681798
15	0x3f128b3f	0.5724372
16	0xbf0694e1	-0.5257092
17	0x3edb592c	0.4284147
18	0x3ec31c56	0.38107556
19	0xbe597d4b	-0.21239202
